35
/home/alexandersalois/Documents/pof_data/fiberLen100/10_samples/snr35/cv01DataSnr35.mat
(11008368, 21) train samples
(11008368, 1) train labels
(1572624, 21) test samples
(1572624, 1) test labels
Model: "sequential"
_________________________________________________________________
Layer (type)                 Output Shape              Param #   
=================================================================
dense (Dense)                (None, 12)                264       
_________________________________________________________________
dense_1 (Dense)              (None, 12)                156       
_________________________________________________________________
dense_2 (Dense)              (None, 10)                130       
_________________________________________________________________
dense_3 (Dense)              (None, 8)                 88        
_________________________________________________________________
dense_4 (Dense)              (None, 6)                 54        
_________________________________________________________________
dense_5 (Dense)              (None, 4)                 28        
_________________________________________________________________
dense_6 (Dense)              (None, 2)                 10        
_________________________________________________________________
dense_7 (Dense)              (None, 4)                 12        
_________________________________________________________________
dense_8 (Dense)              (None, 6)                 30        
_________________________________________________________________
dense_9 (Dense)              (None, 8)                 56        
_________________________________________________________________
dense_10 (Dense)             (None, 10)                90        
_________________________________________________________________
dense_11 (Dense)             (None, 12)                132       
_________________________________________________________________
dense_12 (Dense)             (None, 1)                 13        
=================================================================
Total params: 1,063
Trainable params: 1,063
Non-trainable params: 0
_________________________________________________________________
Epoch 1/10
344012/344012 - 294s - loss: 0.0012 - rmse: 0.0344
Epoch 2/10
344012/344012 - 293s - loss: 2.1380e-04 - rmse: 0.0146
Epoch 3/10
344012/344012 - 293s - loss: 1.6736e-04 - rmse: 0.0129
…
